weights.pt (torch, 172338 bytes, 9 tensors)

embedding.weight f4 [2011, 8]
00000000: 5557 f23f 1c15 c43e cc4f 423f 22c7 7ebe
00000010: 339e 9a3c 0eb2 f3be f4cc c53e 7393 fb3e
00000020: ccd2 17bf 63c1 c5bd fd75 a0be bd29 cabd
00000030: d5de b53f f2ba cfbf 672f 6dbf 9ef8 ab3d
00000040: dec5 763f bf0f 503f 1ffc 203f 867f 3bbf
00000050: 937c b9bf a6b2 cd3e 77ea b13f d617 08bf
00000060: 84f4 923b 9dae 88be 1436 a0bc 1c71 c93f
00000070: 4b8c 203f 2736 3d3e e0f1 85be e03c c03f
00000080: 772a d83e 40da c73f 010d cfbf 0845 dbbf
00000090: f65c ae3f 455b 073e 20ca 74bf 1915 dd3e
000000a0: e3c5 cabf 6411 3f40 c218 16be ce6f 4ebf
000000b0: 6262 2740 aa71 4f3f ff22 0d40 4171 ed3f
000000c0: fdae acbd 5cf0 a53c a069 a3bf f9e0 33bf
000000d0: 54f0 663f a5d7 b4be 6fd1 533f 93b2 2e3f
000000e0: 299e bebf 6f06 35bf 6e8f c2bf 3855 42bf
000000f0: 265f f63e b87f cb3e 4a89 8ebf 430a 17be
00000100: a878 30bf 73d2 8fbe 090c cbbe 8a74 cabe
00000110: c37f 3fbe 36ae 52be 7941 59be 62f0 713f
00000120: a5ff 68bf f30c bfbf 9587 11bf 1afa d0bf
00000130: 5b0e 723f 6216 003f 2424 1c3e 7382 f3bf
00000140: 91c8 e03e b7c0 0b40 54eb 3ebf 0ab0 e9be
00000150: 0822 5abf 2e1c dcbf da19 8abe b08f b73f
00000160: 0956 5a3f b008 9c3f 5c11 6d3f 0568 99bf
00000170: 3919 353f 9589 43bf 491f 823f bba6 48be
00000180: 17db 6dbc 6de5 bd3f 90e7 4ebf 4352 7cbf
00000190: fd52 30bf 473c 01bf 9bf8 883e e716 e63e
000001a0: a5d3 7bbf 94fa 4dbf decd af3e a234 80be
000001b0: 01d7 e53f a4cb 1e3f 1396 12bf e636 933f
000001c0: b8da d13f 89ba 993f 0fe0 6e3f fb58 64be
000001d0: 8f8e babf 0367 613f 41ab a43e 157c 21c0
000001e0: e2a9 983e a2a7 b73e 3f1e cbbb 3185 3bbe
000001f0: 2ae7 06be 10d5 b83e b2a9 f8bf 966b 0340
00000200: 0f18 183f 3245 303f 644f f43f c4f0 f1bd
00000210: 3207 e93e f78c b23f 4c05 9fbe 9a13 e8be
00000220: 8cdf 243e 8cd5 823f 3a50 7ebd ce39 8fbf
00000230: 829d bfbe 4685 93be 1fd4 0640 09f6 873f
00000240: f240 b5b9 717d 083f 8b61 0ec0 f4d5 c83d
00000250: d078 74bf 6ff2 9e3f 0f13 4cbf df75 a53e
00000260: 1ee9 0ebf ec8e b73f 412c 9e3d cfe9 7fbf
00000270: 52fa 353f 6fd1 c4bf 38a0 d93f 7335 423f
00000280: 7049 5c3e 3891 03bf 88b9 03be 902e 1fbe
00000290: c87f 763e e0ad 92be cb7b a63f c868 413f
000002a0: c01e 38be 68fa bfbe 7a8e c1bf cd69 52be
000002b0: f96a c63e 5368 a73f 906a 1540 8453 55be
000002c0: 5e17 aebe 4221 4cbf b57d 64bf 28df 1e3e
000002d0: df49 303f a089 01bf 1465 4abf 73b6 69bf
000002e0: 8748 9c3e 2ee0 ab3f b1d9 2ebf cae2 22bf
000002f0: 7f25 76bf 9791 84be a069 e1be 9862 7f3f
00000300: 2fbb c2bf 59e3 7a3f 77ea 88bf ba3a ff3e
00000310: 9b40 b5be b871 6f3e 4600 14bf 1344 d83f
00000320: 5e4d 91bf 9f6c a5bf f5db cebe 1581 fbbe
00000330: d298 213e 258a e6bd dcc5 a03f 7f66 d83d
00000340: 9fcc c13d af6c 03bf be77 513f 25ea 38bf
00000350: 6814 a93f 02dd e23f 1943 4cbf 6cbe d33e
00000360: 47db 993f 8fb0 36be 44af c83f c013 a73f
00000370: 728f fdbe 07da 193e 7f2b 123f 9440 0c40
00000380: d4a3 f43e cedd 843f c4cf 01c0 f0d8 e1be
00000390: 52fb ef3e 8022 11c0 a05f 903f 8030 5cbf
000003a0: 0068 053f 9dc1 03bf 0c6f 1740 0e01 f23e
000003b0: 2971 80be 9f42 ad3d f651 7fbf ce60 76bf
000003c0: 61ff c23f 9e86 b6bf 1133 2fbf 34c4 303e
000003d0: 5215 8a3f 6546 3240 a826 9bbd 1beb 023f
000003e0: d664 6dbf 32f6 4e3f 511c 9d3f c5ad babf
000003f0: 2faa e5be 8a73 9ebd 8d4b fdbc bebc 82bd
1.8932902 0.38297355 0.7590301 -0.2488065 0.018874263 -0.47596782 0.3863293 0.49135932
-0.59306026 -0.09656026 -0.31340018 -0.09871242 1.4208628 -1.6228926 -0.92650455 0.08397029
0.9639567 0.81274027 0.62884706 -0.7324146 -1.4491142 0.4017536 1.3899678 -0.5316137
0.004484715 -0.2669572 -0.019557036 1.5737643 0.6271407 0.18477689 -0.26161098 1.5018578
0.42219898 1.561348 -1.6175843 -1.7130442 1.362212 0.1321841 -0.9562092 0.4318016
-1.584164 2.9854364 -0.14657882 -0.8063935 2.6153798 0.8103281 2.205261 1.8550187
-0.08431814 0.020256214 -1.2766609 -0.70265156 0.9021046 -0.35320774 0.82741445 0.6824123
-1.4892017 -0.7071294 -1.5200021 -0.75911283 0.48119467 0.3974588 -1.1135647 -0.14750008
-0.68934107 -0.28090248 -0.3965762 -0.39542037 -0.18701081 -0.20574269 -0.21216382 0.9450742
-0.9101508 -1.4925827 -0.56847507 -1.6326325 0.94553155 0.50034153 0.15248162 -1.9024185
0.4390302 2.1836374 -0.7457783 -0.4564212 -0.8520818 -1.71961 -0.26972848 1.4340725
0.8528753 1.2190151 0.92604613 -1.1984869 0.7074161 -0.7638181 1.0165797 -0.19594853
-0.014517567 1.483564 -0.80822086 -0.9856302 -0.6887663 -0.504826 0.2675217 0.44939348
-0.9836982 -0.80460477 0.34336752 -0.25040156 1.7956239 0.6202948 -0.57260245 1.1501129
1.6394873 1.2010051 0.93310636 -0.22299568 -1.4574755 0.8804781 0.32161906 -2.5231984
0.2981711 0.3587008 -0.006198674 -0.18312527 -0.1317412 0.36100054 -1.9426787 2.0534415
0.5941171 0.68855584 1.9086728 -0.118135005 0.45513302 1.3949269 -0.3105873 -0.45327455
0.16100901 1.0221419 -0.06208823 -1.1189516 -0.37424856 -0.28812617 2.1066968 1.0621959
-0.00034571398 0.5331641 -2.2247036 0.09806433 -0.95496845 1.2417735 -0.7971658 0.3231649
-0.5582446 1.4340491 0.077232845 -0.9996614 0.71085083 -1.5376414 1.700202 0.7586281
0.21512389 -0.5139346 -0.12863743 -0.15545106 0.24072182 -0.2864828 1.3006529 0.7555051
-0.1798048 -0.37495732 -1.5121605 -0.20548172 0.3875349 1.3078712 2.334629 -0.2083264
-0.34002203 -0.7973825 -0.89254314 0.15514815 0.6886272 -0.50600624 -0.7906048 -0.9129402
0.30524084 1.3427789 -0.6830092 -0.636273 -0.96150964 -0.25892326 -0.44025898 0.9975982
-1.5213374 0.98003155 -1.0696553 0.49849492 -0.35400853 0.23383224 -0.5781292 1.6895775
-1.1351736 -1.2923774 -0.4040219 -0.4912192 0.15780953 -0.11256818 1.2560382 0.105664246
0.094628565 -0.51337713 0.8182334 -0.72232276 1.3209352 1.7723696 -0.7978988 0.41356218
1.2020043 -0.1784079 1.5678487 1.3052902 -0.49523503 0.15024577 0.5709762 2.1914415
0.4778124 1.038019 -2.028306 -0.44110823 0.4687143 -2.2677307 1.1279182 -0.86011505
0.52111816 -0.51467305 2.3661528 0.4726643 -0.25086334 0.084599726 -0.9973444 -0.9624146
1.5234185 -1.4259832 -0.68437296 0.17262346 1.0787756 2.7855465 -0.075757325 0.5113999
-0.9273199 0.80844414 1.2274266 -1.458428 -0.44856402 -0.07736881 -0.030919814 -0.06383656

rnn_cell.weight_ih_l0 f4 [16, 8]
00000000: 351a b93d 0cdd 7d3e 0485 553d 44db af3d
00000010: 4177 1abe 7b9f c33e dde6 233e 0c34 a43e
00000020: dfc3 e6bd 9396 ab3e 98cf db3b 3b3c 94bd
00000030: 6da1 8a3e 4670 19be 853d 80be 880d 463e
00000040: 0c7e 54bd f928 49bd 17f7 29be bab4 073e
00000050: 37b4 b63d eff4 aa3e 7618 16bd d548 87bd
00000060: a8c3 2f3e ce5a 08be 1620 7cbe 332d a8bd
00000070: 519d c2bd f5ca 90bd 5495 7c3d 81f7 83be
00000080: df95 f63d 27e2 033e ee22 423e 702b 14be
00000090: 460d 563e f3e0 6a3e 630f 1abe aa68 793e
000000a0: 46fd 58be 4b92 e33c 6e19 383e b76b 75be
000000b0: 489b 093e a575 7a3e ac17 c4bc 3c04 f8bd
000000c0: 4f4a 6abe 38c4 2b3e 98c3 353e 39c7 a43c
000000d0: a5d5 0d3d d768 363e 8275 63bc e724 da3d
000000e0: 2c45 64be aaba 11be 842a db3c 2524 c7be
000000f0: 7b54 813c 4e6b 343d f8ca 0dbe db64 cb3e
00000100: 0fc0 8cbd 9293 863e a36e 343d afa6 93be
00000110: 3b5c bd3d 77e4 3b3e 2de7 c63d 8c2b 353d
00000120: 614c 6a3e 9f87 1ebe 6211 44be d024 67be
00000130: 3a2d d0bd 772c 3a3d a892 b7be 22b9 083e
00000140: f9ae eebd 3189 1fbe 0f0e a73e 6b82 4a3d
00000150: 63df 223e cf4e 10be 5a20 2e3e 6204 44be
00000160: cea3 173d 2154 313b e802 dabe d799 debd
00000170: cc68 3f3d f297 abbc 5547 3e3e 3093 cebc
00000180: 266f 133e f422 c33b 57c3 d0bd fd66 293e
00000190: 1b17 1dbd 0dcc 45be 6000 8e3e bbae 6b3d
000001a0: 629c 243e 74cb fc3d 8af3 ce3a 9553 8abb
000001b0: 26bf 993e 9c23 f6bc 2904 7d3e a771 dc3c
000001c0: 1490 9abc a98d 7fbe fec6 6fbe a1bf 533e
000001d0: 0bd3 f13b f1cf 73be 0138 943e 0858 b93d
000001e0: a5af 56be cbe5 f63d 3773 03be 1ee2 e43d
000001f0: 40a6 0abe cc29 91be b1fc a83a 805c 393e
0.09038202 0.24791354 0.052128807 0.085867435 -0.15084554 0.3820761 0.16006036 0.3207096
-0.11267828 0.33513317 0.0067080967 -0.072380506 0.27076283 -0.14984235 -0.25046936 0.193411
-0.05187802 -0.04911134 -0.16598164 0.13252535 0.08921092 0.33389995 -0.03664442 -0.066056885
0.1716448 -0.13315889 -0.24621615 -0.08211746 -0.09502662 -0.07069961 0.061665848 -0.25774768
0.120403044 0.12879239 0.18958637 -0.14469695 0.20903501 0.22937374 -0.15044932 0.24356332
-0.21190366 0.027779719 0.1797845 -0.23966871 0.13438141 0.2445894 -0.023937069 -0.12110183
-0.22879909 0.1677407 0.17750394 0.020114528 0.034627575 0.1781343 -0.0138829965 0.1065157
-0.22292012 -0.14231363 0.026753671 -0.38894764 0.015787354 0.044047646 -0.13846958 0.39725384
-0.0687257 0.26284462 0.044050824 -0.28838107 0.09246107 0.18348871 0.09712062 0.044230983
0.22880699 -0.15481423 -0.19147256 -0.22572637 -0.10164876 0.04545256 -0.35854077 0.13351873
-0.11654467 -0.15579678 0.32627913 0.049440783 0.15905528 -0.14092563 0.17004529 -0.19142297
0.03702145 0.0027058201 -0.42580342 -0.10869186 0.0467308 -0.020946477 0.18581899 -0.025216669
0.14397869 0.0059550945 -0.10193508 0.16543193 -0.038352113 -0.1931612 0.2773466 0.057539683
0.1607528 0.12343493 0.0015789133 -0.0042213895 0.30028647 -0.030046277 0.24708618 0.026909662
-0.01886753 -0.24956383 -0.23415753 0.2067857 0.0073798946 -0.23809792 0.28948978 0.09049994
-0.2096544 0.12055548 -0.1283692 0.11175941 -0.13539982 -0.283522 0.0012892691 0.18101692

rnn_cell.weight_hh_l0 f4 [16, 16]
00000000: fe1c bb3d 9566 36be c22c 0ebc 1754 4abd
00000010: 4ce9 29be 65f4 983d 61d8 4ebe fa31 5a3d
00000020: e722 a23e 3d96 d93d a2ee ff3c 5da1 e33c
00000030: 1eb7 aabd 7775 3cbe 6e96 4ebe b778 773e
00000040: 93d5 4cbe 9f78 18be 38a3 303e 4f22 0f3d
00000050: f62a b63d c38a 31be 347e bfbc 74c3 483c
00000060: 496d 923e 614a 973d a41b 19bd 7287 14bd
00000070: f936 13be 4f51 263e 0715 9d3b 1d1f 013e
00000080: f7ec 953d 2d67 ff3c 71d0 eb3c 90e5 6a3e
00000090: 2984 b43e f099 003e 5c43 403e d689 9d3e
000000a0: 5f54 1e3e 8557 78be fd5e 563e a591 643d
000000b0: 7f27 533e bf62 343d e06c 873e 7a00 50be
000000c0: a1e8 2fbd e0b9 11be 14c0 52be 1319 383e
000000d0: 03f1 0ebe b040 fc3d 3cee 3b3d ad55 1e3e
000000e0: 75d3 38be 1df9 97bb f5de 973b c2ed f6bc
000000f0: 5a47 0f3e a3db 40bd 7b64 233e 99cf acbd
00000100: 5308 ee3d c451 ab3d 614e 87bd 020c 21be
00000110: 103f 863e b639 6e3e 9e89 6dbe 046a 473d
00000120: 0376 263d 0cd9 093e 36fd 16be 248c 1bbe
00000130: 5859 acbc 60af 46bd ada3 133e 9f5b b9bb
00000140: 7259 43be d673 a9bd e147 0cbe 7158 d93d
00000150: 21e0 4c3d 3e16 a3bd 1b21 6e3e 77a5 103e
00000160: 713d 123e d0a6 d0bd 71f7 1c3e 38a5 14be
00000170: 0308 32be b10d e5bd e260 223e fd98 bdbd
00000180: 0cbd 363e d35c 25bd a56e 8ebd d8e1 b5bc
00000190: d2d1 b43d c4d0 d6bd b955 59be f290 f6bd
000001a0: 7611 223e e773 d03d b6ac 61be 492e 023e
000001b0: af19 92bd a7df 9f3e a794 373d 8260 dd3d
000001c0: 9ce4 083e 0f62 9fbc 6001 79bd 179e 39be
000001d0: 7d23 433e 9d5d bc3d 2286 303d 1fa7 8d3d
000001e0: 4047 163e b405 333e 0e7c f13d 08c0 39bc
000001f0: 62bb ccbc 0969 ad3d aae4 22be 4c87 b23d
00000200: db7d 3cbe 4125 94bb 2bde 26be ba77 8dbd
00000210: 8026 6d3e c6cd 4bbe d9e4 eabd ca5d 573a
00000220: 6780 fabd a746 95bd 85fd 41be 4f20 08be
00000230: 6b4b 38be 73e1 3f3d f882 2dbe a5b6 20be
00000240: aa63 b7bb c7e5 1cbd 7ab0 3bbe 7226 dbbb
00000250: a76e 7ebe bced 8c3e 2aae 183e 34f7 d5bb
00000260: c804 103e cf45 ddbd aec4 a9bd a0b7 95bd
00000270: 18f5 e73c 58cd 03bc 5abe cb3d c7cd d4bd
00000280: ca28 41be 44cb d4bd aeef 713b 8ff0 fc3d
00000290: 38cf 0bbe e058 2abe 6fa6 7b3e e905 79be
000002a0: 3d9f c1bc 64f9 203e 8120 26be 9615 09be
000002b0: a00b 32bc b74e efbd b6b2 0e3e 354a 693d
000002c0: a12c e53d 157f 0cbe e7d9 3e3d 48a2 e43d
000002d0: 9961 c6bd 82a9 66be 8323 7c3d 9bf6 27be
000002e0: ffac d2bd 7db5 5a3e 8463 913a f056 89bd
000002f0: 3e6a cfbd 5104 823d 1110 8b3d 7e7a c93d
00000300: 84c2 dbbd 6370 d5bd 31fb 06bd 7066 573e
00000310: 77dc 85be ca08 12be 5931 02be 3e1e b7bd
00000320: d741 c33d 0f8c 96bc 4b3e 50be b1aa 3fbe
00000330: 7712 d0bc 7a33 80bd 9bf7 5a3d 5bef 1f3d
00000340: ca04 643d 751b 24be befe b23e 5186 75be
00000350: 9de8 42bd a53f 45be 63b9 e73d 49dd 453e
00000360: 5c0d d53d 4551 c6bd 484b 013e 5dbf 363e
00000370: 343b 0b3d d9b4 2cbe 87fb 963c 49a5 3cbe
00000380: a7d9 cbbd 84cf b43d 5bac f5bd 8070 443e
00000390: 3681 f8bd 8c2d 2c3d cde8 6abe abcd 08be
000003a0: 2694 f7bc 350f 50bb 92e4 e0bd 4d94 5c3d
000003b0: 4012 9f3d 17fd 003e 75eb 5abe e2d0 5a3d
000003c0: 76d7 183d 887e 17be 8b12 29be 0688 f53d
000003d0: bf87 1ebe c605 63be ea07 4a3e 7c55 15be
000003e0: 945f 65bc 4da0 0f3e 5250 4d3a 72b7 fd3d
000003f0: 1464 c9bd b253 53bd 608f 583e ba36 71be
0.09136389 -0.1781257 -0.008677663 -0.0493966 -0.16592902 0.074684896 -0.2019973 0.053270318
0.31667253 0.10624359 0.031241719 0.027786905 -0.08335708 -0.18404184 -0.20174572 0.24167143
-0.20003347 -0.14889763 0.17249763 0.03494483 0.08894913 -0.1733809 -0.023375608 0.012253631
0.28599003 0.073872335 -0.037379876 -0.036261983 -0.14376439 0.16241954 0.0047937664 0.12609525
0.07320588 0.031177128 0.028785916 0.22939134 0.3525708 0.12558722 0.18775696 0.30769223
0.15461873 -0.24252136 0.20934673 0.05580296 0.20620535 0.044039484 0.26450253 -0.20312682
-0.04294646 -0.14231062 -0.20581084 0.17978315 -0.13959126 0.12317026 0.045881495 0.1546237
-0.18049414 -0.004637851 0.004634733 -0.030142669 0.13992062 -0.047084462 0.15956299 -0.084380336
0.116226815 0.08365205 -0.066067465 -0.15727237 0.26219988 0.23264202 -0.23197028 0.04868509
0.04063989 0.13461703 -0.1474503 -0.15190178 -0.021038696 -0.048507094 0.14417906 -0.005656674
-0.1907709 -0.08274047 -0.13699295 0.10612572 0.050018433 -0.07963227 0.23254816 0.1412562
0.1428125 -0.10188067 0.15328766 -0.14516151 -0.17385869 -0.11184252 0.1585727 -0.09257696
0.17845553 -0.040371727 -0.069546975 -0.022202417 0.088290825 -0.10489038 -0.21224107 -0.12039365
0.15826973 0.101783566 -0.2203854 0.12712969 -0.07133805 0.3122532 0.0448195 0.10809423
0.13368458 -0.019455938 -0.060792327 -0.18126713 0.19056506 0.09197543 0.04309667 0.069166414
0.14675617 0.17482644 0.1179124 -0.011337288 -0.024991695 0.084672995 -0.15907541 0.08717212
-0.18407385 -0.0045210426 -0.16295688 -0.06907602 0.23159218 -0.19902715 -0.114694305 0.0008215575
-0.12231522 -0.072888665 -0.18944366 -0.13293575 -0.1799752 0.046845865 -0.16944492 -0.15694673
-0.0055965977 -0.03830507 -0.18329039 -0.0066879326 -0.24846898 0.27525127 0.14910188 -0.006529713
0.14064324 -0.108043306 -0.08289467 -0.07310414 0.028315112 -0.008044563 0.09948416 -0.103908114
-0.18863216 -0.10390332 0.0036916542 0.123505704 -0.13653266 -0.16635466 0.24575208 -0.24318661
-0.023635501 0.15720135 -0.16223337 -0.1338714 -0.010867029 -0.116849355 0.1393536 0.056955535
0.11190153 -0.13720353 0.046594527 0.11163765 -0.09686584 -0.225256 0.061557304 -0.16402666
-0.10286903 0.21358295 0.001109228 -0.06706035 -0.10127686 0.063484795 0.06790174 0.09837817
-0.1073046 -0.10421827 -0.0329544 0.2103517 -0.26144764 -0.14261165 -0.12714137 -0.08941315
0.09534042 -0.018377332 -0.20336263 -0.18717457 -0.02539943 -0.062598184 0.05345879 0.039046627
0.05566863 -0.16026099 0.34959978 -0.23977019 -0.04758512 -0.1926256 0.113146566 0.19322695
0.10402939 -0.0968347 0.12626374 0.17846437 0.033992007 -0.16865863 0.018430484 -0.18422426
-0.09953623 0.08828643 -0.11995765 0.1918354 -0.1213402 0.042035624 -0.22940369 -0.13359706
-0.03022201 -0.0031747345 -0.10981096 0.05385237 0.07767153 0.12596546 -0.21378882 0.053421862
0.037314855 -0.14794362 -0.1651098 0.11988835 -0.1548147 -0.22170171 0.19729581 -0.14583391
-0.013999838 0.14025994 0.0007832098 0.12388505 -0.098335415 -0.05159349 0.21148443 -0.23556033

rnn_cell.bias_ih_l0 f4 [16]
00000000: 919a 23be 62ff 263e 5d9e 273e 1f28 603e
00000010: 4a3d eabc 9a03 613e 4224 393e 8a10 fd3d
00000020: 6059 283e 8a03 0ebe b66e 153e bb59 0cbe
00000030: d85c b9bd eb36 aa3c 16cd b53d af43 b53d
-0.15976931 0.16308358 0.16369005 0.21890305 -0.028593678 0.2197403 0.18080238 0.1235667
0.16440344 -0.13868538 0.14593014 -0.13706104 -0.09050912 0.02077814 0.08877008 0.088508

rnn_cell.bias_hh_l0 f4 [16]
00000000: 1cc4 f63d 0dfc 06be 7a0b 03be e72d 6fbc
00000010: 0247 a9bd 9501 52bd 19e9 043d 5b17 90bd
00000020: 4ac2 82be 61b6 bfbc ccf7 1cbe 8a5f dfbd
00000030: 6144 70be d76c 4abe caee 693d 11b7 0ebe
0.12049124 -0.13182087 -0.12797347 -0.014598346 -0.08265497 -0.05127104 0.03244886 -0.07035705
-0.25538856 -0.023402395 -0.15328902 -0.109068945 -0.23463584 -0.19768082 0.057112493 -0.13937022

linear.0.weight f4 [16, 1600]
00000000: 2e79 623d f715 03be e6fb b5bd 125c fa3b
00000010: 7a0b 93bd 650e fcbd 2263 c2bd ffbd d63c
00000020: 5bc6 c93a 114e 22bd d1fe 033e 8a19 14bc
00000030: 121a 203e 8205 76ba cbdb 583e adcb 253d
00000040: 0f8d 48bd 0aed 193e 3cb0 653c dfbb 05bd
00000050: 9b8f abbc 6321 833c a07a 943c 3d04 e63c
00000060: e5df b63d 5cbf 8fbd 4aa9 013d 2819 1c3e
00000070: 8729 123e 0a8c b63d fac8 913d 4668 573d
00000080: 3d65 483d 6c1b 6bbc 1f47 f53d 5324 b3bd
00000090: 9bd8 36bd b86d 2cbd f0a0 fabc 2d3f ab3d
000000a0: c706 4dbe 9eb8 ea3c bc73 30bd 0746 d1bd
000000b0: dcc3 93bc e9e3 28be ca29 303e d558 423c
000000c0: a91b 80bd 676b eebd d46c 123e 3dd2 373d
000000d0: 9e45 ebbd 1d13 473d 2418 69bd 19f4 74be
000000e0: 4c51 0fbe a74b 99bd d115 293d 9dc9 df3d
000000f0: cd01 10bd e7b8 403d 22e4 5abd 3d5b 913c
00000100: 6f3f 9a3b 6f71 75bc e750 f83d 4159 f8bc
00000110: 3b83 bbbb 45f5 8e3d 9c64 ebbc 3a96 14bd
00000120: 885a 68bc bc50 163e 32aa c63c 23c2 6d3d
00000130: 3634 613c f1c6 273b 949a c33c da1e 29bc
00000140: af7e f9bc 1298 c33d 3e2a b7bc beba 1cbe
00000150: 5c65 0dbe 0c40 00be c661 d93c c3f4 b0bd
00000160: 0e84 d9bd 7b46 d3bd 9819 633d 0e8d 23bd
00000170: 70ca 8fbd 3e9a 28be 1a68 3a3d 7b9c 5c3e
00000180: e3c6 50bd d32e 01be 82b7 fcbd 8f6a 7e3c
00000190: 3797 18be 11a3 f63d a204 44bd 6310 5e3d
000001a0: 52c7 a23b dbc5 523d a937 dd3b ddef a13c
000001b0: fc40 d83d 93a5 29bd ef16 cabd ec5d 27bd
000001c0: 8c48 e6bd ac9b 51be b2a9 b1bd 8e04 2dbd
000001d0: 9dd1 103e 4305 8a3d 9b21 e63c 9ae1 a13d
000001e0: f92a 8ebd 0702 30be b811 623e 813e b83c
000001f0: be2d 0b3e 2987 403e c70d e93c 61bd 063e
00000200: b224 dabb 4cf4 cebd 3e09 143b 45a1 8e3d
00000210: abd0 20be f1c7 7d3d 2e8b 81bd 3cf4 3a3e
00000220: d49c b93b 3663 723d 6485 9fbd ca2a 5d3d
00000230: 606a acbc 4617 d7bc b62d 5a3e 0786 c53d
00000240: ab72 ad3d 0ee5 8ebd c6d8 9a3d 2a30 053e
00000250: c834 febb 24f1 6b3c bcea 51bd 0071 d9bd
00000260: 2b29 13be 08ea 48bb 9a25 fd3d 6911 b9bc
00000270: 744c d1bc 4775 5dbc 9dc0 01bb 4819 76bc
00000280: 75de bf3d 8908 cfbd 7598 69bc 84b1 99bd
00000290: 5c2c 2ebe 6f7c 1fbd b006 8fbd 7b60 99bd
000002a0: 33c8 093d 4f98 0cbe dca8 fdbc 4259 3e3e
000002b0: 450d 223e 4d3c a5bd 7bd2 2d3d 4a99 823d
000002c0: 5661 6c3c 06e5 903e 9858 b5bd 49b8 49bd
000002d0: 6037 17be 69f7 08be ad0b 693e 29bd 083e
000002e0: 8acd 463c e784 c7bc 42df 6e3c cc77 efbd
000002f0: 8cc7 0a3e 655c 073d 5527 68bc 5d7b 5c3e
00000300: 07a4 d0bd 4924 ac3d d77b 9d3d c9c1 0cbd
00000310: 57c0 a3bd f828 d53d 6929 6b3d 7fcb 3b3e
00000320: f018 723d 810f b33c 4270 8dbb f383 af3d
00000330: d938 f4bd 16d3 bcbd f705 2c3c 68a9 4a3c
00000340: 56d1 793e 3dda b5bd c697 273e 8312 8bbd
00000350: e449 ec3c f354 a23d f28c 0a3b 2233 d0bc
00000360: b98a 83bc 6f27 72bb 6689 efbd 22a4 01bc
00000370: 817c 12be c9c0 5bbd 0e35 553d e7b8 293c
00000380: 2be6 63bc 78f6 c7bd e32b c2bd fc90 653d
00000390: 9a36 60bd 5621 543d 0063 25bd 2f96 2d3d
000003a0: 00e6 7abd 5e5e ae3c 5d34 9b3d ed49 8a3d
000003b0: 27b7 733d a77a 2f3d 3a82 513c 063d 113e
000003c0: 2d8f b5bd 2a77 febc 8f66 453c 68ed 2fbd
000003d0: 75e1 0cbd 5e24 15bd 6ccb d1bd 42bf 81bc
000003e0: 2d9c a9bd d94d cc3d 7d90 1c3d 15d3 41bc
000003f0: a477 663b f02d 6f3d f4cd 1b3c b7dd 13be
0.055291347 -0.12801348 -0.088859364 0.00764037 -0.07179923 -0.12307433 -0.09491564 0.026213644
0.0015394198 -0.03962523 0.12890173 -0.009039292 0.15634945 -0.0009384976 0.21177594 0.040477443
-0.04896265 0.1503183 0.014019068 -0.03264987 -0.0209425 0.016007131 0.018124878 0.028078193
0.08929423 -0.07018921 0.031655587 0.15243971 0.14273654 0.08913429 0.07118411 0.052589677
0.048924673 -0.0143498 0.11976456 -0.08747163 -0.044640165 -0.042096823 -0.03059432 0.08361659
-0.20022117 0.028652485 -0.043079123 -0.10218435 -0.018037729 -0.16493191 0.17203441 0.0118619995
-0.06255276 -0.11641579 0.14299327 0.044878233 -0.11487888 0.048602212 -0.056907788 -0.23921241
-0.13995856 -0.07485133 0.04128057 0.109271266 -0.035157967 0.047051337 -0.05344022 0.017743701
0.004707269 -0.014980658 0.12124806 -0.030315997 -0.005722431 0.06980375 -0.028734498 -0.03627608
-0.014181741 0.14679235 0.024251077 0.05804647 0.013745358 0.0025600756 0.02387742 -0.010322297
-0.030455915 0.095504895 -0.02235901 -0.15305611 -0.13808197 -0.12524432 0.02653588 -0.086404346
-0.106208906 -0.103161775 0.05544433 -0.039929442 -0.07021034 -0.16465089 0.045509435 0.21544068
-0.050970923 -0.12615518 -0.12339689 0.015528335 -0.14901434 0.12042821 -0.04785598 0.054214846
0.0049676085 0.05145822 0.00675102 0.019767696 0.1055927 -0.04141767 -0.098676555 -0.040861055
-0.11244306 -0.2046954 -0.08674945 -0.04224067 0.14142461 0.06739285 0.028092196 0.07904358
-0.0694179 -0.17188273 0.22077072 0.022490742 0.13591668 0.1880156 0.028448952 0.1315818
-0.0066572065 -0.1010519 0.0022588517 0.069643535 -0.157046 0.061958257 -0.063253745 0.1825723
0.0056644473 0.059176646 -0.07789114 0.053995885 -0.021046817 -0.026256215 0.213065 0.09644704
0.08469137 -0.069772825 0.075608775 0.13006654 -0.007757757 0.014400754 -0.05124925 -0.10617256
-0.14371173 -0.0030657072 0.123606876 -0.02259131 -0.025549151 -0.013516731 -0.0019798644 -0.015020676
0.09368602 -0.1010905 -0.01425754 -0.075045615 -0.1700911 -0.03893703 -0.069836974 -0.07489105
0.03363819 -0.13729976 -0.030964307 0.18588737 0.15825374 -0.08068142 0.042437058 0.06376894
0.014427504 0.2829973 -0.088547885 -0.049248014 -0.14767218 -0.1337563 0.2275836 0.13353409
0.012133965 -0.024355365 0.014579596 -0.11692771 0.13552684 0.0330471 -0.014169534 0.21531434
-0.10187536 0.08405358 0.07689636 -0.034364495 -0.0799567 0.10408205 0.05741254 0.18339346
0.059105814 0.021857979 -0.0043163607 0.08570089 -0.11924905 -0.09219949 0.010499469 0.012369491
0.24396262 -0.08879516 0.1636649 -0.0679064 0.028843828 0.07926359 0.002114114 -0.025415007
-0.016057359 -0.0036949774 -0.116961285 -0.0079126675 -0.14305307 -0.05365065 0.05205255 0.010359026
-0.013909857 -0.09763807 -0.09481027 0.05604647 -0.054739572 0.051789604 -0.040377617 0.042379554
-0.0612545 0.021285232 0.07578347 0.067523815 0.05950084 0.04284158 0.012787396 0.14183435
-0.08865199 -0.031062681 0.012048378 -0.042951018 -0.0343947 -0.036411636 -0.10243878 -0.01583827
-0.08281741 0.09975786 0.038223732 -0.011830111 0.0035166526 0.05839342 0.009509552 -0.14440046

linear.0.bias f4 [16]
00000000: 4946 68bd b09d 07be 519d 9d3a cf1b 56bd
00000010: e659 0f3e 441a 84be 317f c8bd 510f ebbb
00000020: 56bc 113e e90e ca3c 63b9 f83d b855 6c3d
00000030: adf9 c03c c0d2 cabd 7547 51be 40d6 b13c
-0.056707654 -0.13243747 0.0012025033 -0.052272614 0.13999137 -0.2580129 -0.09789885 -0.0071734567
0.14232 0.024665313 0.12144735 0.057698935 0.023556555 -0.099034786 -0.20437415 0.021708608

linear.2.weight f4 [3, 16]
00000000: 6df7 ebbb bc0c 3dbe d503 afbe e1c0 94be
00000010: 650a 9dbe f63b 343f 4f21 953e faea 333e
00000020: c816 343f 0fe7 b33e a266 5abe 5ace bdbe
00000030: 35df f13e 3de7 b93b be60 da3e 2d8e d03d
00000040: fe49 e3bd 3e63 603e 875e 75be 24eb 763e
00000050: 1b00 cb3e c810 69bd a780 313e f610 ad3d
00000060: e14e 723e 6ce9 3cbe 72ad 2abe b904 553d
00000070: 6e14 9dbe 6dac 05be ca94 933e 614e 81be
00000080: 8b5e ddbe 6342 a2be 6545 c33d 3341 70be
00000090: 5b5f 2c3e 97a4 fcbe ec31 76be 4d89 a1be
000000a0: 5c7b 0dbf a902 f3be aa15 a83e b3d7 763e
000000b0: d6b7 c4bd a012 033f dda8 b8be 8e38 bb3e
-0.0072011263 -0.18461889 -0.3418261 -0.29053405 -0.30671993 0.70403993 0.29126975 0.17570105
0.7034726 0.3513722 -0.21328214 -0.37071496 0.47240606 0.0056733177 0.42651933 0.10183368
-0.11098097 0.21912858 -0.2396184 0.24113137 0.39648518 -0.05690077 0.17334233 0.08450501
0.23662902 -0.18448418 -0.16667727 0.052006457 -0.3067965 -0.13054056 0.28824455 -0.2525511
-0.43236193 -0.31691274 0.0953472 -0.23462372 0.1683325 -0.49344322 -0.24042481 -0.31550065
-0.55266356 -0.47462967 0.32829028 0.2410572 -0.096053764 0.51200294 -0.36066332 0.36566585

linear.2.bias f4 [3]
00000000: 0574 833d cb71 993e a1b7 89be
0.06418613 0.2996963 -0.2689791
